…
reated. The architecture of the CNN model used is specified in Table \n2.\nTable 2. The architecture of the CNN model used\nModel: “Sequential”",
    "metadata": {
      "paper_id": "article_14",
      "page_number": 4,
      "source": "./articles\\article_14.pdf",
      "chunk_index": 692
    }
  },
  {
    "chunk_id": "article_14_p4_c693",
    "content": "features have been found by the CNN architecture created. The architecture of the CNN model used is specified in Table \n2.\nTable 2. The architecture of the CNN model used\nModel: “Sequential”\nLayer (type) Output shape Parameters\nConv2d (None, 62, 62, 64) 1,792\nMaxPooling2d (None, 31, 31, 64) 0\nConv2d (None, 29, 29, 32) 18,464\nMaxPooling2d (None, 14, 14, 32) 0\nFlatten (None, 6272) 0\nDense (None, 512) 3,211,776\nDense 1 (None, 218) 111,834\nDense 2 (None, 64) 14,016\nDense 3 (None, 32) 2,080\nTotal parameters: 3,359,962\nTrainable parameters: 3,359,962\n3.2 ML inside Docker containers\nTraining ML models requires maximum utilization of computational resources (central processing unit, CPU and \nrandom-access memory, RAM) which can be done by isolating these processes. Dockers provide isolation through \ncontainer applications. Docker is an open-source container-based platform developed to create and run applications",
…
